…
24-09-18 13:33:54.313 - INFO: Dataset [LRDataset - my-real] is created.
24-09-18 13:33:54.313 - INFO: Number of test images in [my-real]: 193
24-09-18 13:33:54.313 - INFO: Dataset [LRHRDataset - Rain12] is created.
24-09-18 13:33:54.313 - INFO: Number of test images in [Rain12]: 12
24-09-18 13:33:56.853 - INFO: Loading pretrained model for G [/home/mg70912/Desktop/CODE-Net/experiments/CODE-Net_model5_notpool_RWW_14chaneel2_rain100L/models/243000_G.pth] ...
24-09-18 13:33:56.855 - INFO: Network G structure: DataParallel - RlcscNet, with parameters: 101,057
24-09-18 13:33:56.855 - INFO: RlcscNet(
  (scn): MySCN(
    (W1): Conv2d(32, 64, kernel_size=(3, 3), stride=(1, 1), padding=(1, 1), bias=False)
    (S): Conv2d(64, 64, kernel_size=(3, 3), stride=(1, 1), padding=(1, 1), bias=False)
    (W2): Conv2d(64, 32, kernel_size=(3, 3), stride=(1, 1), padding=(1, 1), bias=False)
    (RW1): CALayer(
      (conv_atten): Sequential(
        (0): Conv2d(64, 32, kernel_size=(1, 1), stride=(1, 1), bias=False)
        (1): ReLU(inplace=True)
        (2): Conv2d(32, 64, kernel_size=(1, 1), stride=(1, 1), bias=False)
        (3): Sigmoid()
      )
    )
    (RW2): CALayer(
      (conv_atten): Sequential(
        (0): Conv2d(64, 32, kernel_size=(1, 1), stride=(1, 1), bias=False)
        (1): ReLU(inplace=True)
        (2): Conv2d(32, 64, kernel_size=(1, 1), stride=(1, 1), bias=False)
        (3): Sigmoid()
      )
    )
    (RWW1): CALayera(
      (conv_atten): Sequential(
        (0): Conv2d(64, 64, kernel_size=(1, 1), stride=(1, 1), bias=False)
        (1): Sigmoid()
      )
    )
    (RWW2): CALayera(
      (conv_atten): Sequential(
        (0): Conv2d(64, 64, kernel_size=(1, 1), stride=(1, 1), bias=False)
        (1): Sigmoid()
      )
    )
    (shlu): ReLU(inplace=True)
    (relu): ReLU(inplace=True)
  )
  (input): Conv2d(3, 32, kernel_size=(3, 3), stride=(1, 1), padding=(1, 1), bias=False)
  (advanced): Conv2d(32, 32, kernel_size=(3, 3), stride=(1, 1), padding=(1, 1), bias=False)
  (output): Conv2d(32, 3, kernel_size=(3, 3), stride=(1, 1), padding=(1, 1), bias=False)
  (relu): ReLU(inplace=True)
)
24-09-18 13:33:56.857 - INFO: Model [SRModel] is created.
24-09-18 13:33:56.857 - INFO: 
Testing [my-real]...
24-09-18 13:33:57.238 - INFO: 10
24-09-18 13:33:57.245 - INFO: 100
24-09-18 13:33:57.253 - INFO: 101
24-09-18 13:33:57.262 - INFO: 102
24-09-18 13:33:57.270 - INFO: 103
24-09-18 13:33:57.277 - INFO: 104
…
