…
24-09-18 14:05:09.387 - INFO: Dataset [LRDataset - my-real] is created.
24-09-18 14:05:09.387 - INFO: Number of test images in [my-real]: 193
24-09-18 14:05:09.388 - INFO: Dataset [LRHRDataset - Rain100H] is created.
24-09-18 14:05:09.388 - INFO: Number of test images in [Rain100H]: 100
24-09-18 14:05:12.046 - INFO: Loading pretrained model for G [/home/mg70912/Desktop/CODE-Net/experiments/CODE-Net_model5_notpool_RWW_14chaneel2_rain100H/models/350000_G.pth] ...
24-09-18 14:05:12.047 - INFO: Network G structure: DataParallel - RlcscNet, with parameters: 101,057
24-09-18 14:05:12.047 - INFO: RlcscNet(
  (scn): MySCN(
    (W1): Conv2d(32, 64, kernel_size=(3, 3), stride=(1, 1), padding=(1, 1), bias=False)
    (S): Conv2d(64, 64, kernel_size=(3, 3), stride=(1, 1), padding=(1, 1), bias=False)
    (W2): Conv2d(64, 32, kernel_size=(3, 3), stride=(1, 1), padding=(1, 1), bias=False)
    (RW1): CALayer(
      (conv_atten): Sequential(
        (0): Conv2d(64, 32, kernel_size=(1, 1), stride=(1, 1), bias=False)
        (1): ReLU(inplace=True)
        (2): Conv2d(32, 64, kernel_size=(1, 1), stride=(1, 1), bias=False)
        (3): Sigmoid()
      )
    )
    (RW2): CALayer(
      (conv_atten): Sequential(
        (0): Conv2d(64, 32, kernel_size=(1, 1), stride=(1, 1), bias=False)
        (1): ReLU(inplace=True)
        (2): Conv2d(32, 64, kernel_size=(1, 1), stride=(1, 1), bias=False)
        (3): Sigmoid()
      )
    )
    (RWW1): CALayera(
      (conv_atten): Sequential(
        (0): Conv2d(64, 64, kernel_size=(1, 1), stride=(1, 1), bias=False)
        (1): Sigmoid()
      )
    )
    (RWW2): CALayera(
      (conv_atten): Sequential(
        (0): Conv2d(64, 64, kernel_size=(1, 1), stride=(1, 1), bias=False)
        (1): Sigmoid()
      )
    )
    (shlu): ReLU(inplace=True)
    (relu): ReLU(inplace=True)
  )
  (input): Conv2d(3, 32, kernel_size=(3, 3), stride=(1, 1), padding=(1, 1), bias=False)
  (advanced): Conv2d(32, 32, kernel_size=(3, 3), stride=(1, 1), padding=(1, 1), bias=False)
  (output): Conv2d(32, 3, kernel_size=(3, 3), stride=(1, 1), padding=(1, 1), bias=False)
  (relu): ReLU(inplace=True)
)
24-09-18 14:05:12.047 - INFO: Model [SRModel] is created.
24-09-18 14:05:12.047 - INFO: 
Testing [my-real]...
24-09-18 14:05:12.395 - INFO: 10
24-09-18 14:05:12.404 - INFO: 100
24-09-18 14:05:12.413 - INFO: 101
24-09-18 14:05:12.422 - INFO: 102
24-09-18 14:05:12.429 - INFO: 103
24-09-18 14:05:12.436 - INFO: 104
…
